…
ion-Model"><a href="#Graph-Prediction-Model" class="headerlink" title="Graph Prediction Model"></a>Graph Prediction Model</h4><p>使用上面的 GCN 模型产生图中节点的 embedding，然后使用池化操作（这里是平均）得到每个图的 embedding（对每个节点的 embedding 进行按元素平均），<code>torch_geometric.data.Batch</code> 中的 batch 有利于我们做这个池化操作。</p><figure class="highlight python"><table><tr><td class="gutter"><pre><span class="line">1</span><br></pre></td><td class="code"><pre><code class="hljs python">model<br></code></pre></td></tr></table></figure><pre><code class="hljs">GCN_Graph(  (node_encoder): AtomEncoder(    (atom_embedding_list): ModuleList(      (0): Embedding(119, 256)      (1): Embedding(4, 256)      (2): Embedding(12, 256)      (3): Embedding(12, 256)      (4): Embedding(10, 256)      (5): Embedding(6, 256)      (6): Embedding(6, 256)      (7): Embedding(2, 256)      (8): Embedding(2, 256)    )  )  (gnn_node): GCN(    (convs): ModuleList(      (0): GCNConv(256, 256)      (1): GCNConv(256, 256)      (2): GCNConv(256, 256)      (3): GCNConv(256, 256)      (4): GCNConv(256, 256)    )    (bns): ModuleList(      (0): BatchNorm1d(256, eps=1e-05, momentum=0.1, affine=True, track_running_stats=True)      (1): BatchNorm1d(256, eps=1e-05, momentum=0.1, affine=True, track_running_stats=True)      (2): BatchNorm1d(256, eps=1e-05, momentum=0.1, affine=True, track_running_stats=True)      (3): BatchNorm1d(256, eps=1e-05, momentum=0.1, affine=True, track_running_stats=True)    )    (softmax): LogSoftmax(dim=None)  )  (linear): Linear(in_features=256, out_features=1, bias=True))</code></pre><figure class="highlight python"><table><tr><td class="gutter"><pre><span class="line">1</span><br><span class="line">2</span><br><span class="line">3</span><br><span class="line">4</span><br><span class="line">5</span><br><span class="line">6</span><br><span class="line">7</span><br><span class="line">8</span><br><span class="line">9</span>
…
